…
attn_states: (None, 200, 200)
fusion: (None, 200, 512)
Weights Loaded
Model: "model_2"
__________________________________________________________________________________________________
Layer (type)                    Output Shape         Param #     Connected to                     
==================================================================================================
input_1 (InputLayer)            [(None, 32000, 1)]   0                                            
__________________________________________________________________________________________________
conv1d (Conv1D)                 (None, 1600, 256)    10496       input_1[0][0]                    
__________________________________________________________________________________________________
conv1d_1 (Conv1D)               (None, 200, 256)     1048832     conv1d[0][0]                     
__________________________________________________________________________________________________
conv1d_6 (Conv1D)               (None, 200, 512)     131584      conv1d_1[0][0]                   
__________________________________________________________________________________________________
activation_9 (Activation)       (None, 200, 512)     0           conv1d_6[0][0]                   
__________________________________________________________________________________________________
batch_normalization_10 (BatchNo (None, 200, 512)     2048        activation_9[0][0]               
__________________________________________________________________________________________________
separable_conv1d_5 (SeparableCo (None, 200, 512)     264192      batch_normalization_10[0][0]     
__________________________________________________________________________________________________
activation_10 (Activation)      (None, 200, 512)     0           separable_conv1d_5[0][0]         
__________________________________________________________________________________________________
batch_normalization_11 (BatchNo (None, 200, 512)     2048        activation_10[0][0]              
__________________________________________________________________________________________________
conv1d_7 (Conv1D)               (None, 200, 256)     131328      batch_normalization_11[0][0]     
__________________________________________________________________________________________________
add_13 (Add)                    (None, 200, 256)     0           conv1d_1[0][0]                   
                                                                 conv1d_7[0][0]                   
__________________________________________________________________________________________________
conv1d_8 (Conv1D)               (None, 200, 512)     131584      add_13[0][0]                     
__________________________________________________________________________________________________
activation_11 (Activation)      (None, 200, 512)     0           conv1d_8[0][0]                   
__________________________________________________________________________________________________
batch_normalization_12 (BatchNo (None, 200, 512)     2048        activation_11[0][0]              
__________________________________________________________________________________________________
separable_conv1d_6 (SeparableCo (None, 200, 512)     264192      batch_normalization_12[0][0]     
__________________________________________________________________________________________________
activation_12 (Activation)      (None, 200, 512)     0           separable_conv1d_6[0][0]         
__________________________________________________________________________________________________
batch_normalization_13 (BatchNo (None, 200, 512)     2048        activation_12[0][0]              
__________________________________________________________________________________________________
conv1d_9 (Conv1D)               (None, 200, 256)     131328      batch_normalization_13[0][0]     
__________________________________________________________________________________________________
add_14 (Add)                    (None, 200, 256)     0           add_13[0][0]                     
                                                                 conv1d_9[0][0]                   
__________________________________________________________________________________________________
conv1d_10 (Conv1D)              (None, 200, 512)     131584      add_14[0][0]                     
__________________________________________________________________________________________________
activation_13 (Activation)      (None, 200, 512)     0           conv1d_10[0][0]                  
__________________________________________________________________________________________________
batch_normalization_14 (BatchNo (None, 200, 512)     2048        activation_13[0][0]              
__________________________________________________________________________________________________
separable_conv1d_7 (SeparableCo (None, 200, 512)     264192      batch_normalization_14[0][0]     
__________________________________________________________________________________________________
activation_14 (Activation)      (None, 200, 512)     0           separable_conv1d_7[0][0]         
__________________________________________________________________________________________________
batch_normalization_15 (BatchNo (None, 200, 512)     2048        activation_14[0][0]              
__________________________________________________________________________________________________
conv1d_11 (Conv1D)              (None, 200, 256)     131328      batch_normalization_15[0][0]     
__________________________________________________________________________________________________
add_15 (Add)                    (None, 200, 256)     0           add_14[0][0]                     
                                                                 conv1d_11[0][0]                  
__________________________________________________________________________________________________
conv1d_12 (Conv1D)              (None, 200, 512)     131584      add_15[0][0]                     
__________________________________________________________________________________________________
activation_15 (Activation)      (None, 200, 512)     0           conv1d_12[0][0]                  
__________________________________________________________________________________________________
batch_normalization_16 (BatchNo (None, 200, 512)     2048        activation_15[0][0]              
__________________________________________________________________________________________________
separable_conv1d_8 (SeparableCo (None, 200, 512)     264192      batch_normalization_16[0][0]     
__________________________________________________________________________________________________
activation_16 (Activation)      (None, 200, 512)     0           separable_conv1d_8[0][0]         
__________________________________________________________________________________________________
batch_normalization_17 (BatchNo (None, 200, 512)     2048        activation_16[0][0]              
__________________________________________________________________________________________________
conv1d_13 (Conv1D)              (None, 200, 256)     131328      batch_normalization_17[0][0]     
__________________________________________________________________________________________________
add_16 (Add)                    (None, 200, 256)     0           add_15[0][0]                     
                                                                 conv1d_13[0][0]                  
__________________________________________________________________________________________________
conv1d_14 (Conv1D)              (None, 200, 512)     131584      add_16[0][0]                     
__________________________________________________________________________________________________
frames_input (InputLayer)       [(None, 50, 50, 100, 0                                            
__________________________________________________________________________________________________
activation_17 (Activation)      (None, 200, 512)     0           conv1d_14[0][0]                  
__________________________________________________________________________________________________
sequential (Sequential)         (None, 50, 32, 32, 6 15936       frames_input[0][0]               
__________________________________________________________________________________________________
batch_normalization_18 (BatchNo (None, 200, 512)     2048        activation_17[0][0]              
__________________________________________________________________________________________________
lambda2 (Lambda)                (None, 32, 32, 64)   0           sequential[0][0]                 
__________________________________________________________________________________________________
separable_conv1d_9 (SeparableCo (None, 200, 512)     264192      batch_normalization_18[0][0]     
__________________________________________________________________________________________________
model (Model)                   multiple             11378368    lambda2[0][0]                    
__________________________________________________________________________________________________
activation_18 (Activation)      (None, 200, 512)     0           separable_conv1d_9[0][0]         
__________________________________________________________________________________________________
global_avgpool_resnet (GlobalAv (None, 512)          0           model[1][0]                      
__________________________________________________________________________________________________
batch_normalization_19 (BatchNo (None, 200, 512)     2048        activation_18[0][0]              
__________________________________________________________________________________________________
dense_2 (Dense)                 (None, 256)          131328      global_avgpool_resnet[0][0]      
__________________________________________________________________________________________________
conv1d_15 (Conv1D)              (None, 200, 256)     131328      batch_normalization_19[0][0]     
__________________________________________________________________________________________________
batch_normalization_4 (BatchNor (None, 256)          1024        dense_2[0][0]                    
__________________________________________________________________________________________________
add_17 (Add)                    (None, 200, 256)     0           add_16[0][0]                     
                                                                 conv1d_15[0][0]                  
__________________________________________________________________________________________________
lambda6 (Lambda)                (None, 50, 256)      0           batch_normalization_4[0][0]      
__________________________________________________________________________________________________
conv1d_16 (Conv1D)              (None, 200, 512)     131584      add_17[0][0]                     
__________________________________________________________________________________________________
conv1d_4 (Conv1D)               (None, 50, 512)      131584      lambda6[0][0]                    
__________________________________________________________________________________________________
activation_19 (Activation)      (None, 200, 512)     0           conv1d_16[0][0]                  
__________________________________________________________________________________________________
activation_4 (Activation)       (None, 50, 512)      0           conv1d_4[0][0]                   
__________________________________________________________________________________________________
batch_normalization_20 (BatchNo (None, 200, 512)     2048        activation_19[0][0]              
__________________________________________________________________________________________________
batch_normalization_5 (BatchNor (None, 50, 512)      2048        activation_4[0][0]               
__________________________________________________________________________________________________
separable_conv1d_10 (SeparableC (None, 200, 512)     264192      batch_normalization_20[0][0]     
__________________________________________________________________________________________________
separable_conv1d (SeparableConv (None, 50, 512)      264192      batch_normalization_5[0][0]      
__________________________________________________________________________________________________
activation_20 (Activation)      (None, 200, 512)     0           separable_conv1d_10[0][0]        
__________________________________________________________________________________________________
add_8 (Add)                     (None, 50, 512)      0           conv1d_4[0][0]                   
                                                                 separable_conv1d[0][0]           
__________________________________________________________________________________________________
batch_normalization_21 (BatchNo (None, 200, 512)     2048        activation_20[0][0]              
__________________________________________________________________________________________________
activation_5 (Activation)       (None, 50, 512)      0           add_8[0][0]                      
__________________________________________________________________________________________________
conv1d_17 (Conv1D)              (None, 200, 256)     131328      batch_normalization_21[0][0]     
__________________________________________________________________________________________________
batch_normalization_6 (BatchNor (None, 50, 512)      2048        activation_5[0][0]               
__________________________________________________________________________________________________
add_18 (Add)                    (None, 200, 256)     0           add_17[0][0]                     
                                                                 conv1d_17[0][0]                  
__________________________________________________________________________________________________
separable_conv1d_1 (SeparableCo (None, 50, 512)      264192      batch_normalization_6[0][0]      
__________________________________________________________________________________________________
conv1d_18 (Conv1D)              (None, 200, 512)     131584      add_18[0][0]                     
__________________________________________________________________________________________________
add_9 (Add)                     (None, 50, 512)      0           add_8[0][0]                      
                                                                 separable_conv1d_1[0][0]         
__________________________________________________________________________________________________
activation_21 (Activation)      (None, 200, 512)     0           conv1d_18[0][0]                  
__________________________________________________________________________________________________
activation_6 (Activation)       (None, 50, 512)      0           add_9[0][0]                      
__________________________________________________________________________________________________
batch_normalization_22 (BatchNo (None, 200, 512)     2048        activation_21[0][0]              
__________________________________________________________________________________________________
batch_normalization_7 (BatchNor (None, 50, 512)      2048        activation_6[0][0]               
__________________________________________________________________________________________________
separable_conv1d_11 (SeparableC (None, 200, 512)     264192      batch_normalization_22[0][0]     
__________________________________________________________________________________________________
separable_conv1d_2 (SeparableCo (None, 50, 512)      264192      batch_normalization_7[0][0]      
__________________________________________________________________________________________________
activation_22 (Activation)      (None, 200, 512)     0           separable_conv1d_11[0][0]        
__________________________________________________________________________________________________
add_10 (Add)                    (None, 50, 512)      0           add_9[0][0]                      
                                                                 separable_conv1d_2[0][0]         
__________________________________________________________________________________________________
batch_normalization_23 (BatchNo (None, 200, 512)     2048        activation_22[0][0]              
__________________________________________________________________________________________________
activation_7 (Activation)       (None, 50, 512)      0           add_10[0][0]                     
__________________________________________________________________________________________________
conv1d_19 (Conv1D)              (None, 200, 256)     131328      batch_normalization_23[0][0]     
__________________________________________________________________________________________________
batch_normalization_8 (BatchNor (None, 50, 512)      2048        activation_7[0][0]               
__________________________________________________________________________________________________
add_19 (Add)                    (None, 200, 256)     0           add_18[0][0]                     
                                                                 conv1d_19[0][0]                  
__________________________________________________________________________________________________
separable_conv1d_3 (SeparableCo (None, 50, 512)      264192      batch_normalization_8[0][0]      
__________________________________________________________________________________________________
conv1d_20 (Conv1D)              (None, 200, 512)     131584      add_19[0][0]                     
__________________________________________________________________________________________________
add_11 (Add)                    (None, 50, 512)      0           add_10[0][0]                     
                                                                 separable_conv1d_3[0][0]         
__________________________________________________________________________________________________
activation_23 (Activation)      (None, 200, 512)     0           conv1d_20[0][0]                  
__________________________________________________________________________________________________
activation_8 (Activation)       (None, 50, 512)      0           add_11[0][0]                     
__________________________________________________________________________________________________
batch_normalization_24 (BatchNo (None, 200, 512)     2048        activation_23[0][0]              
__________________________________________________________________________________________________
batch_normalization_9 (BatchNor (None, 50, 512)      2048        activation_8[0][0]               
__________________________________________________________________________________________________
separable_conv1d_12 (SeparableC (None, 200, 512)     264192      batch_normalization_24[0][0]     
__________________________________________________________________________________________________
separable_conv1d_4 (SeparableCo (None, 50, 512)      264192      batch_normalization_9[0][0]      
__________________________________________________________________________________________________
activation_24 (Activation)      (None, 200, 512)     0           separable_conv1d_12[0][0]        
__________________________________________________________________________________________________
add_12 (Add)                    (None, 50, 512)      0           add_11[0][0]                     
                                                                 separable_conv1d_4[0][0]         
__________________________________________________________________________________________________
batch_normalization_25 (BatchNo (None, 200, 512)     2048        activation_24[0][0]              
__________________________________________________________________________________________________
conv1d_5 (Conv1D)               (None, 50, 256)      131328      add_12[0][0]                     
__________________________________________________________________________________________________
conv1d_21 (Conv1D)              (None, 200, 256)     131328      batch_normalization_25[0][0]     
__________________________________________________________________________________________________
up_sampling1d (UpSampling1D)    (None, 200, 256)     0           conv1d_5[0][0]                   
__________________________________________________________________________________________________
add_20 (Add)                    (None, 200, 256)     0           add_19[0][0]                     
                                                                 conv1d_21[0][0]                  
__________________________________________________________________________________________________
hidden_state (InputLayer)       [(None, 256)]        0                                            
__________________________________________________________________________________________________
…
attention_layer (Bahdanau)      [(None, 200, 512), ( 1575680     up_sampling1d[0][0]              
                                                                 add_20[0][0]                     
                                                                 hidden_state[0][0]               
                                                                 cell_state[0][0]                 
                                                                 out_state[0][0]                  
__________________________________________________________________________________________________
conv1d_22 (Conv1D)              (None, 200, 512)     262656      attention_layer[0][0]            
__________________________________________________________________________________________________
activation_25 (Activation)      (None, 200, 512)     0           conv1d_22[0][0]                  
__________________________________________________________________________________________________
batch_normalization_26 (BatchNo (None, 200, 512)     2048        activation_25[0][0]              
__________________________________________________________________________________________________
separable_conv1d_13 (SeparableC (None, 200, 512)     264192      batch_normalization_26[0][0]     
__________________________________________________________________________________________________
add_21 (Add)                    (None, 200, 512)     0           attention_layer[0][0]            
                                                                 separable_conv1d_13[0][0]        
__________________________________________________________________________________________________
conv1d_23 (Conv1D)              (None, 200, 512)     262656      add_21[0][0]                     
__________________________________________________________________________________________________
activation_26 (Activation)      (None, 200, 512)     0           conv1d_23[0][0]                  
__________________________________________________________________________________________________
batch_normalization_27 (BatchNo (None, 200, 512)     2048        activation_26[0][0]              
__________________________________________________________________________________________________
separable_conv1d_14 (SeparableC (None, 200, 512)     264192      batch_normalization_27[0][0]     
__________________________________________________________________________________________________
add_22 (Add)                    (None, 200, 512)     0           add_21[0][0]                     
                                                                 separable_conv1d_14[0][0]        
__________________________________________________________________________________________________
conv1d_24 (Conv1D)              (None, 200, 512)     262656      add_22[0][0]                     
__________________________________________________________________________________________________
activation_27 (Activation)      (None, 200, 512)     0           conv1d_24[0][0]                  
__________________________________________________________________________________________________
batch_normalization_28 (BatchNo (None, 200, 512)     2048        activation_27[0][0]              
__________________________________________________________________________________________________
separable_conv1d_15 (SeparableC (None, 200, 512)     264192      batch_normalization_28[0][0]     
__________________________________________________________________________________________________
add_23 (Add)                    (None, 200, 512)     0           add_22[0][0]                     
                                                                 separable_conv1d_15[0][0]        
__________________________________________________________________________________________________
conv1d_25 (Conv1D)              (None, 200, 512)     262656      add_23[0][0]                     
__________________________________________________________________________________________________
activation_28 (Activation)      (None, 200, 512)     0           conv1d_25[0][0]                  
__________________________________________________________________________________________________
batch_normalization_29 (BatchNo (None, 200, 512)     2048        activation_28[0][0]              
__________________________________________________________________________________________________
separable_conv1d_16 (SeparableC (None, 200, 512)     264192      batch_normalization_29[0][0]     
__________________________________________________________________________________________________
add_24 (Add)                    (None, 200, 512)     0           add_23[0][0]                     
                                                                 separable_conv1d_16[0][0]        
__________________________________________________________________________________________________
conv1d_26 (Conv1D)              (None, 200, 512)     262656      add_24[0][0]                     
__________________________________________________________________________________________________
activation_29 (Activation)      (None, 200, 512)     0           conv1d_26[0][0]                  
__________________________________________________________________________________________________
batch_normalization_30 (BatchNo (None, 200, 512)     2048        activation_29[0][0]              
__________________________________________________________________________________________________
separable_conv1d_17 (SeparableC (None, 200, 512)     264192      batch_normalization_30[0][0]     
__________________________________________________________________________________________________
add_25 (Add)                    (None, 200, 512)     0           add_24[0][0]                     
                                                                 separable_conv1d_17[0][0]        
__________________________________________________________________________________________________
conv1d_27 (Conv1D)              (None, 200, 512)     262656      add_25[0][0]                     
__________________________________________________________________________________________________
activation_30 (Activation)      (None, 200, 512)     0           conv1d_27[0][0]                  
__________________________________________________________________________________________________
batch_normalization_31 (BatchNo (None, 200, 512)     2048        activation_30[0][0]              
__________________________________________________________________________________________________
separable_conv1d_18 (SeparableC (None, 200, 512)     264192      batch_normalization_31[0][0]     
__________________________________________________________________________________________________
add_26 (Add)                    (None, 200, 512)     0           add_25[0][0]                     
                                                                 separable_conv1d_18[0][0]        
__________________________________________________________________________________________________
conv1d_28 (Conv1D)              (None, 200, 512)     262656      add_26[0][0]                     
__________________________________________________________________________________________________
activation_31 (Activation)      (None, 200, 512)     0           conv1d_28[0][0]                  
__________________________________________________________________________________________________
batch_normalization_32 (BatchNo (None, 200, 512)     2048        activation_31[0][0]              
__________________________________________________________________________________________________
separable_conv1d_19 (SeparableC (None, 200, 512)     264192      batch_normalization_32[0][0]     
__________________________________________________________________________________________________
add_27 (Add)                    (None, 200, 512)     0           add_26[0][0]                     
                                                                 separable_conv1d_19[0][0]        
__________________________________________________________________________________________________
conv1d_29 (Conv1D)              (None, 200, 512)     262656      add_27[0][0]                     
__________________________________________________________________________________________________
activation_32 (Activation)      (None, 200, 512)     0           conv1d_29[0][0]                  
__________________________________________________________________________________________________
batch_normalization_33 (BatchNo (None, 200, 512)     2048        activation_32[0][0]              
__________________________________________________________________________________________________
separable_conv1d_20 (SeparableC (None, 200, 512)     264192      batch_normalization_33[0][0]     
__________________________________________________________________________________________________
add_28 (Add)                    (None, 200, 512)     0           add_27[0][0]                     
                                                                 separable_conv1d_20[0][0]        
__________________________________________________________________________________________________
conv1d_30 (Conv1D)              (None, 200, 512)     262656      add_28[0][0]                     
__________________________________________________________________________________________________
activation_33 (Activation)      (None, 200, 512)     0           conv1d_30[0][0]                  
__________________________________________________________________________________________________
batch_normalization_34 (BatchNo (None, 200, 512)     2048        activation_33[0][0]              
__________________________________________________________________________________________________
separable_conv1d_21 (SeparableC (None, 200, 512)     264192      batch_normalization_34[0][0]     
__________________________________________________________________________________________________
add_29 (Add)                    (None, 200, 512)     0           add_28[0][0]                     
                                                                 separable_conv1d_21[0][0]        
__________________________________________________________________________________________________
conv1d_31 (Conv1D)              (None, 200, 512)     262656      add_29[0][0]                     
__________________________________________________________________________________________________
activation_34 (Activation)      (None, 200, 512)     0           conv1d_31[0][0]                  
__________________________________________________________________________________________________
batch_normalization_35 (BatchNo (None, 200, 512)     2048        activation_34[0][0]              
__________________________________________________________________________________________________
separable_conv1d_22 (SeparableC (None, 200, 512)     264192      batch_normalization_35[0][0]     
__________________________________________________________________________________________________
add_30 (Add)                    (None, 200, 512)     0           add_29[0][0]                     
                                                                 separable_conv1d_22[0][0]        
__________________________________________________________________________________________________
conv1d_32 (Conv1D)              (None, 200, 512)     262656      add_30[0][0]                     
__________________________________________________________________________________________________
activation_35 (Activation)      (None, 200, 512)     0           conv1d_32[0][0]                  
__________________________________________________________________________________________________
batch_normalization_36 (BatchNo (None, 200, 512)     2048        activation_35[0][0]              
__________________________________________________________________________________________________
separable_conv1d_23 (SeparableC (None, 200, 512)     264192      batch_normalization_36[0][0]     
__________________________________________________________________________________________________
add_31 (Add)                    (None, 200, 512)     0           add_30[0][0]                     
                                                                 separable_conv1d_23[0][0]        
__________________________________________________________________________________________________
conv1d_33 (Conv1D)              (None, 200, 512)     262656      add_31[0][0]                     
__________________________________________________________________________________________________
activation_36 (Activation)      (None, 200, 512)     0           conv1d_33[0][0]                  
__________________________________________________________________________________________________
batch_normalization_37 (BatchNo (None, 200, 512)     2048        activation_36[0][0]              
__________________________________________________________________________________________________
separable_conv1d_24 (SeparableC (None, 200, 512)     264192      batch_normalization_37[0][0]     
__________________________________________________________________________________________________
add_32 (Add)                    (None, 200, 512)     0           add_31[0][0]                     
                                                                 separable_conv1d_24[0][0]        
__________________________________________________________________________________________________
conv1d_34 (Conv1D)              (None, 200, 512)     262656      add_32[0][0]                     
__________________________________________________________________________________________________
activation_37 (Activation)      (None, 200, 512)     0           conv1d_34[0][0]                  
__________________________________________________________________________________________________
batch_normalization_38 (BatchNo (None, 200, 512)     2048        activation_37[0][0]              
__________________________________________________________________________________________________
separable_conv1d_25 (SeparableC (None, 200, 512)     264192      batch_normalization_38[0][0]     
__________________________________________________________________________________________________
add_33 (Add)                    (None, 200, 512)     0           add_32[0][0]                     
                                                                 separable_conv1d_25[0][0]        
__________________________________________________________________________________________________
conv1d_35 (Conv1D)              (None, 200, 512)     262656      add_33[0][0]                     
__________________________________________________________________________________________________
activation_38 (Activation)      (None, 200, 512)     0           conv1d_35[0][0]                  
__________________________________________________________________________________________________
batch_normalization_39 (BatchNo (None, 200, 512)     2048        activation_38[0][0]              
__________________________________________________________________________________________________
separable_conv1d_26 (SeparableC (None, 200, 512)     264192      batch_normalization_39[0][0]     
__________________________________________________________________________________________________
add_34 (Add)                    (None, 200, 512)     0           add_33[0][0]                     
                                                                 separable_conv1d_26[0][0]        
__________________________________________________________________________________________________
conv1d_36 (Conv1D)              (None, 200, 512)     262656      add_34[0][0]                     
__________________________________________________________________________________________________
activation_39 (Activation)      (None, 200, 512)     0           conv1d_36[0][0]                  
__________________________________________________________________________________________________
batch_normalization_40 (BatchNo (None, 200, 512)     2048        activation_39[0][0]              
__________________________________________________________________________________________________
separable_conv1d_27 (SeparableC (None, 200, 512)     264192      batch_normalization_40[0][0]     
__________________________________________________________________________________________________
add_35 (Add)                    (None, 200, 512)     0           add_34[0][0]                     
                                                                 separable_conv1d_27[0][0]        
__________________________________________________________________________________________________
conv1d_37 (Conv1D)              (None, 200, 512)     262656      add_35[0][0]                     
__________________________________________________________________________________________________
activation_40 (Activation)      (None, 200, 512)     0           conv1d_37[0][0]                  
__________________________________________________________________________________________________
batch_normalization_41 (BatchNo (None, 200, 512)     2048        activation_40[0][0]              
__________________________________________________________________________________________________
separable_conv1d_28 (SeparableC (None, 200, 512)     264192      batch_normalization_41[0][0]     
__________________________________________________________________________________________________
add_36 (Add)                    (None, 200, 512)     0           add_35[0][0]                     
                                                                 separable_conv1d_28[0][0]        
__________________________________________________________________________________________________
conv1d_38 (Conv1D)              (None, 200, 256)     131328      add_36[0][0]                     
__________________________________________________________________________________________________
multiply (Multiply)             (None, 200, 256)     0           conv1d_1[0][0]                   
                                                                 conv1d_38[0][0]                  
__________________________________________________________________________________________________
lambda (Lambda)                 (None, 200, 1, 256)  0           multiply[0][0]                   
__________________________________________________________________________________________________
conv2d_transpose (Conv2DTranspo (None, 1600, 1, 256) 1048832     lambda[0][0]                     
__________________________________________________________________________________________________
conv2d_transpose_1 (Conv2DTrans (None, 32000, 1, 1)  10241       conv2d_transpose[0][0]           
__________________________________________________________________________________________________
lambda_1 (Lambda)               (None, 32000, 1)     0           conv2d_transpose_1[0][0]         
==================================================================================================
Total params: 29,658,113
Trainable params: 29,611,521
Non-trainable params: 46,592
__________________________________________________________________________________________________
None
Model weights path: tdavss_AttentionGRU_bothTrainVal_unsync_Offset_LowTrain_HighVal_epochs40_5lr1e-4_exp1
…
